{"config": {"name": "model_1", "layers": [{"config": {"batch_input_shape": [null, null, 2], "name": "data", "dtype": "float", "sparse": false}, "class_name": "InputLayer", "name": "data", "inbound_nodes": []}, {"config": {"strides": [1], "activation": "relu", "trainable": true, "data_format": "channels_last", "bias_constraint": null, "bias_regularizer": null, "name": "block1_conv1", "bias_initializer": {"config": {}, "class_name": "Zeros"}, "kernel_constraint": null, "activity_regularizer": null, "kernel_regularizer": null, "padding": "same", "kernel_size": [3], "kernel_initializer": {"config": {"mode": "fan_avg", "seed": null, "distribution": "uniform", "scale": 1.0}, "class_name": "VarianceScaling"}, "use_bias": true, "dilation_rate": [1], "filters": 32}, "class_name": "Conv1D", "name": "block1_conv1", "inbound_nodes": [[["data", 0, 0, {}]]]}, {"config": {"gamma_constraint": null, "momentum": 0.95, "trainable": true, "beta_regularizer": null, "beta_constraint": null, "axis": -1, "gamma_initializer": {"config": {}, "class_name": "Ones"}, "name": "batch_normalization_1", "moving_mean_initializer": {"config": {}, "class_name": "Zeros"}, "beta_initializer": {"config": {}, "class_name": "Zeros"}, "center": true, "gamma_regularizer": null, "scale": true, "epsilon": 0.001, "moving_variance_initializer": {"config": {}, "class_name": "Ones"}}, "class_name": "BatchNormalization", "name": "batch_normalization_1", "inbound_nodes": [[["block1_conv1", 0, 0, {}]]]}, {"config": {"name": "dropout_1", "seed": null, "trainable": true, "noise_shape": null, "rate": 0.5}, "class_name": "Dropout", "name": "dropout_1", "inbound_nodes": [[["batch_normalization_1", 0, 0, {}]]]}, {"config": {"strides": [1], "activation": "relu", "trainable": true, "data_format": "channels_last", "bias_constraint": null, "bias_regularizer": null, "name": "block1_conv2", "bias_initializer": {"config": {}, "class_name": "Zeros"}, "kernel_constraint": null, "activity_regularizer": null, "kernel_regularizer": null, "padding": "same", "kernel_size": [3], "kernel_initializer": {"config": {"mode": "fan_avg", "seed": null, "distribution": "uniform", "scale": 1.0}, "class_name": "VarianceScaling"}, "use_bias": true, "dilation_rate": [1], "filters": 32}, "class_name": "Conv1D", "name": "block1_conv2", "inbound_nodes": [[["dropout_1", 0, 0, {}]]]}, {"config": {"gamma_constraint": null, "momentum": 0.95, "trainable": true, "beta_regularizer": null, "beta_constraint": null, "axis": -1, "gamma_initializer": {"config": {}, "class_name": "Ones"}, "name": "batch_normalization_2", "moving_mean_initializer": {"config": {}, "class_name": "Zeros"}, "beta_initializer": {"config": {}, "class_name": "Zeros"}, "center": true, "gamma_regularizer": null, "scale": true, "epsilon": 0.001, "moving_variance_initializer": {"config": {}, "class_name": "Ones"}}, "class_name": "BatchNormalization", "name": "batch_normalization_2", "inbound_nodes": [[["block1_conv2", 0, 0, {}]]]}, {"config": {"pool_size": [3], "strides": [2], "trainable": true, "padding": "same", "data_format": "channels_last", "name": "pool1"}, "class_name": "MaxPooling1D", "name": "pool1", "inbound_nodes": [[["batch_normalization_2", 0, 0, {}]]]}, {"config": {"strides": [1], "activation": "relu", "trainable": true, "data_format": "channels_last", "bias_constraint": null, "bias_regularizer": null, "name": "block2_conv1", "bias_initializer": {"config": {}, "class_name": "Zeros"}, "kernel_constraint": null, "activity_regularizer": null, "kernel_regularizer": null, "padding": "same", "kernel_size": [3], "kernel_initializer": {"config": {"mode": "fan_avg", "seed": null, "distribution": "uniform", "scale": 1.0}, "class_name": "VarianceScaling"}, "use_bias": true, "dilation_rate": [1], "filters": 64}, "class_name": "Conv1D", "name": "block2_conv1", "inbound_nodes": [[["pool1", 0, 0, {}]]]}, {"config": {"gamma_constraint": null, "momentum": 0.95, "trainable": true, "beta_regularizer": null, "beta_constraint": null, "axis": -1, "gamma_initializer": {"config": {}, "class_name": "Ones"}, "name": "batch_normalization_3", "moving_mean_initializer": {"config": {}, "class_name": "Zeros"}, "beta_initializer": {"config": {}, "class_name": "Zeros"}, "center": true, "gamma_regularizer": null, "scale": true, "epsilon": 0.001, "moving_variance_initializer": {"config": {}, "class_name": "Ones"}}, "class_name": "BatchNormalization", "name": "batch_normalization_3", "inbound_nodes": [[["block2_conv1", 0, 0, {}]]]}, {"config": {"name": "dropout_2", "seed": null, "trainable": true, "noise_shape": null, "rate": 0.5}, "class_name": "Dropout", "name": "dropout_2", "inbound_nodes": [[["batch_normalization_3", 0, 0, {}]]]}, {"config": {"strides": [1], "activation": "relu", "trainable": true, "data_format": "channels_last", "bias_constraint": null, "bias_regularizer": null, "name": "block2_conv2", "bias_initializer": {"config": {}, "class_name": "Zeros"}, "kernel_constraint": null, "activity_regularizer": null, "kernel_regularizer": null, "padding": "same", "kernel_size": [3], "kernel_initializer": {"config": {"mode": "fan_avg", "seed": null, "distribution": "uniform", "scale": 1.0}, "class_name": "VarianceScaling"}, "use_bias": true, "dilation_rate": [1], "filters": 64}, "class_name": "Conv1D", "name": "block2_conv2", "inbound_nodes": [[["dropout_2", 0, 0, {}]]]}, {"config": {"gamma_constraint": null, "momentum": 0.95, "trainable": true, "beta_regularizer": null, "beta_constraint": null, "axis": -1, "gamma_initializer": {"config": {}, "class_name": "Ones"}, "name": "batch_normalization_4", "moving_mean_initializer": {"config": {}, "class_name": "Zeros"}, "beta_initializer": {"config": {}, "class_name": "Zeros"}, "center": true, "gamma_regularizer": null, "scale": true, "epsilon": 0.001, "moving_variance_initializer": {"config": {}, "class_name": "Ones"}}, "class_name": "BatchNormalization", "name": "batch_normalization_4", "inbound_nodes": [[["block2_conv2", 0, 0, {}]]]}, {"config": {"pool_size": [3], "strides": [2], "trainable": true, "padding": "same", "data_format": "channels_last", "name": "pool2"}, "class_name": "MaxPooling1D", "name": "pool2", "inbound_nodes": [[["batch_normalization_4", 0, 0, {}]]]}, {"config": {"strides": [1], "activation": "relu", "trainable": true, "data_format": "channels_last", "bias_constraint": null, "bias_regularizer": null, "name": "block3_conv1", "bias_initializer": {"config": {}, "class_name": "Zeros"}, "kernel_constraint": null, "activity_regularizer": null, "kernel_regularizer": null, "padding": "same", "kernel_size": [3], "kernel_initializer": {"config": {"mode": "fan_avg", "seed": null, "distribution": "uniform", "scale": 1.0}, "class_name": "VarianceScaling"}, "use_bias": true, "dilation_rate": [1], "filters": 128}, "class_name": "Conv1D", "name": "block3_conv1", "inbound_nodes": [[["pool2", 0, 0, {}]]]}, {"config": {"gamma_constraint": null, "momentum": 0.95, "trainable": true, "beta_regularizer": null, "beta_constraint": null, "axis": -1, "gamma_initializer": {"config": {}, "class_name": "Ones"}, "name": "batch_normalization_5", "moving_mean_initializer": {"config": {}, "class_name": "Zeros"}, "beta_initializer": {"config": {}, "class_name": "Zeros"}, "center": true, "gamma_regularizer": null, "scale": true, "epsilon": 0.001, "moving_variance_initializer": {"config": {}, "class_name": "Ones"}}, "class_name": "BatchNormalization", "name": "batch_normalization_5", "inbound_nodes": [[["block3_conv1", 0, 0, {}]]]}, {"config": {"name": "dropout_3", "seed": null, "trainable": true, "noise_shape": null, "rate": 0.5}, "class_name": "Dropout", "name": "dropout_3", "inbound_nodes": [[["batch_normalization_5", 0, 0, {}]]]}, {"config": {"strides": [1], "activation": "relu", "trainable": true, "data_format": "channels_last", "bias_constraint": null, "bias_regularizer": null, "name": "block3_conv2", "bias_initializer": {"config": {}, "class_name": "Zeros"}, "kernel_constraint": null, "activity_regularizer": null, "kernel_regularizer": null, "padding": "same", "kernel_size": [3], "kernel_initializer": {"config": {"mode": "fan_avg", "seed": null, "distribution": "uniform", "scale": 1.0}, "class_name": "VarianceScaling"}, "use_bias": true, "dilation_rate": [1], "filters": 128}, "class_name": "Conv1D", "name": "block3_conv2", "inbound_nodes": [[["dropout_3", 0, 0, {}]]]}, {"config": {"gamma_constraint": null, "momentum": 0.95, "trainable": true, "beta_regularizer": null, "beta_constraint": null, "axis": -1, "gamma_initializer": {"config": {}, "class_name": "Ones"}, "name": "batch_normalization_6", "moving_mean_initializer": {"config": {}, "class_name": "Zeros"}, "beta_initializer": {"config": {}, "class_name": "Zeros"}, "center": true, "gamma_regularizer": null, "scale": true, "epsilon": 0.001, "moving_variance_initializer": {"config": {}, "class_name": "Ones"}}, "class_name": "BatchNormalization", "name": "batch_normalization_6", "inbound_nodes": [[["block3_conv2", 0, 0, {}]]]}, {"config": {"pool_size": [3], "strides": [2], "trainable": true, "padding": "same", "data_format": "channels_last", "name": "pool3"}, "class_name": "MaxPooling1D", "name": "pool3", "inbound_nodes": [[["batch_normalization_6", 0, 0, {}]]]}, {"config": {"strides": [1], "activation": "relu", "trainable": true, "data_format": "channels_last", "bias_constraint": null, "bias_regularizer": null, "name": "block4_conv1", "bias_initializer": {"config": {}, "class_name": "Zeros"}, "kernel_constraint": null, "activity_regularizer": null, "kernel_regularizer": null, "padding": "same", "kernel_size": [3], "kernel_initializer": {"config": {"mode": "fan_avg", "seed": null, "distribution": "uniform", "scale": 1.0}, "class_name": "VarianceScaling"}, "use_bias": true, "dilation_rate": [1], "filters": 256}, "class_name": "Conv1D", "name": "block4_conv1", "inbound_nodes": [[["pool3", 0, 0, {}]]]}, {"config": {"gamma_constraint": null, "momentum": 0.95, "trainable": true, "beta_regularizer": null, "beta_constraint": null, "axis": -1, "gamma_initializer": {"config": {}, "class_name": "Ones"}, "name": "batch_normalization_7", "moving_mean_initializer": {"config": {}, "class_name": "Zeros"}, "beta_initializer": {"config": {}, "class_name": "Zeros"}, "center": true, "gamma_regularizer": null, "scale": true, "epsilon": 0.001, "moving_variance_initializer": {"config": {}, "class_name": "Ones"}}, "class_name": "BatchNormalization", "name": "batch_normalization_7", "inbound_nodes": [[["block4_conv1", 0, 0, {}]]]}, {"config": {"name": "dropout_4", "seed": null, "trainable": true, "noise_shape": null, "rate": 0.5}, "class_name": "Dropout", "name": "dropout_4", "inbound_nodes": [[["batch_normalization_7", 0, 0, {}]]]}, {"config": {"strides": [1], "activation": "relu", "trainable": true, "data_format": "channels_last", "bias_constraint": null, "bias_regularizer": null, "name": "block4_conv2", "bias_initializer": {"config": {}, "class_name": "Zeros"}, "kernel_constraint": null, "activity_regularizer": null, "kernel_regularizer": null, "padding": "same", "kernel_size": [3], "kernel_initializer": {"config": {"mode": "fan_avg", "seed": null, "distribution": "uniform", "scale": 1.0}, "class_name": "VarianceScaling"}, "use_bias": true, "dilation_rate": [1], "filters": 256}, "class_name": "Conv1D", "name": "block4_conv2", "inbound_nodes": [[["dropout_4", 0, 0, {}]]]}, {"config": {"gamma_constraint": null, "momentum": 0.95, "trainable": true, "beta_regularizer": null, "beta_constraint": null, "axis": -1, "gamma_initializer": {"config": {}, "class_name": "Ones"}, "name": "batch_normalization_8", "moving_mean_initializer": {"config": {}, "class_name": "Zeros"}, "beta_initializer": {"config": {}, "class_name": "Zeros"}, "center": true, "gamma_regularizer": null, "scale": true, "epsilon": 0.001, "moving_variance_initializer": {"config": {}, "class_name": "Ones"}}, "class_name": "BatchNormalization", "name": "batch_normalization_8", "inbound_nodes": [[["block4_conv2", 0, 0, {}]]]}, {"config": {"pool_size": [3], "strides": [2], "trainable": true, "padding": "same", "data_format": "channels_last", "name": "pool4"}, "class_name": "MaxPooling1D", "name": "pool4", "inbound_nodes": [[["batch_normalization_8", 0, 0, {}]]]}, {"config": {"strides": [1], "activation": "relu", "trainable": true, "data_format": "channels_last", "bias_constraint": null, "bias_regularizer": null, "name": "block5notl_conv1", "bias_initializer": {"config": {}, "class_name": "Zeros"}, "kernel_constraint": null, "activity_regularizer": null, "kernel_regularizer": null, "padding": "same", "kernel_size": [3], "kernel_initializer": {"config": {"mode": "fan_avg", "seed": null, "distribution": "uniform", "scale": 1.0}, "class_name": "VarianceScaling"}, "use_bias": true, "dilation_rate": [1], "filters": 512}, "class_name": "Conv1D", "name": "block5notl_conv1", "inbound_nodes": [[["pool4", 0, 0, {}]]]}, {"config": {"gamma_constraint": null, "momentum": 0.95, "trainable": true, "beta_regularizer": null, "beta_constraint": null, "axis": -1, "gamma_initializer": {"config": {}, "class_name": "Ones"}, "name": "batch_normalization_9", "moving_mean_initializer": {"config": {}, "class_name": "Zeros"}, "beta_initializer": {"config": {}, "class_name": "Zeros"}, "center": true, "gamma_regularizer": null, "scale": true, "epsilon": 0.001, "moving_variance_initializer": {"config": {}, "class_name": "Ones"}}, "class_name": "BatchNormalization", "name": "batch_normalization_9", "inbound_nodes": [[["block5notl_conv1", 0, 0, {}]]]}, {"config": {"name": "dropout_5", "seed": null, "trainable": true, "noise_shape": null, "rate": 0.5}, "class_name": "Dropout", "name": "dropout_5", "inbound_nodes": [[["batch_normalization_9", 0, 0, {}]]]}, {"config": {"strides": [1], "activation": "relu", "trainable": true, "data_format": "channels_last", "bias_constraint": null, "bias_regularizer": null, "name": "block5notl_conv2", "bias_initializer": {"config": {}, "class_name": "Zeros"}, "kernel_constraint": null, "activity_regularizer": null, "kernel_regularizer": null, "padding": "same", "kernel_size": [3], "kernel_initializer": {"config": {"mode": "fan_avg", "seed": null, "distribution": "uniform", "scale": 1.0}, "class_name": "VarianceScaling"}, "use_bias": true, "dilation_rate": [1], "filters": 512}, "class_name": "Conv1D", "name": "block5notl_conv2", "inbound_nodes": [[["dropout_5", 0, 0, {}]]]}, {"config": {"gamma_constraint": null, "momentum": 0.95, "trainable": true, "beta_regularizer": null, "beta_constraint": null, "axis": -1, "gamma_initializer": {"config": {}, "class_name": "Ones"}, "name": "batch_normalization_10", "moving_mean_initializer": {"config": {}, "class_name": "Zeros"}, "beta_initializer": {"config": {}, "class_name": "Zeros"}, "center": true, "gamma_regularizer": null, "scale": true, "epsilon": 0.001, "moving_variance_initializer": {"config": {}, "class_name": "Ones"}}, "class_name": "BatchNormalization", "name": "batch_normalization_10", "inbound_nodes": [[["block5notl_conv2", 0, 0, {}]]]}, {"config": {"merge_mode": "concat", "name": "bidirectional_1", "trainable": true, "layer": {"config": {"unroll": false, "stateful": false, "units": 256, "name": "lstm_1", "bias_regularizer": null, "unit_forget_bias": true, "activation": "tanh", "recurrent_dropout": 0.2, "return_state": false, "dropout": 0.2, "trainable": true, "return_sequences": true, "kernel_regularizer": null, "recurrent_initializer": {"config": {"gain": 1.0, "seed": null}, "class_name": "Orthogonal"}, "kernel_initializer": {"config": {"mode": "fan_avg", "seed": null, "distribution": "uniform", "scale": 1.0}, "class_name": "VarianceScaling"}, "bias_constraint": null, "go_backwards": false, "bias_initializer": {"config": {}, "class_name": "Zeros"}, "kernel_constraint": null, "activity_regularizer": null, "recurrent_constraint": null, "implementation": 1, "recurrent_activation": "hard_sigmoid", "use_bias": true, "recurrent_regularizer": null}, "class_name": "LSTM"}}, "class_name": "Bidirectional", "name": "bidirectional_1", "inbound_nodes": [[["batch_normalization_10", 0, 0, {}]]]}, {"config": {"size": 2, "trainable": true, "name": "up_sampling1d_1"}, "class_name": "UpSampling1D", "name": "up_sampling1d_1", "inbound_nodes": [[["bidirectional_1", 0, 0, {}]]]}, {"config": {"strides": [1], "activation": "relu", "trainable": true, "data_format": "channels_last", "bias_constraint": null, "bias_regularizer": null, "name": "up1", "bias_initializer": {"config": {}, "class_name": "Zeros"}, "kernel_constraint": null, "activity_regularizer": null, "kernel_regularizer": null, "padding": "same", "kernel_size": [1], "kernel_initializer": {"config": {"mode": "fan_avg", "seed": null, "distribution": "uniform", "scale": 1.0}, "class_name": "VarianceScaling"}, "use_bias": true, "dilation_rate": [1], "filters": 256}, "class_name": "Conv1D", "name": "up1", "inbound_nodes": [[["up_sampling1d_1", 0, 0, {}]]]}, {"config": {"trainable": true, "axis": -1, "name": "concatenate_1"}, "class_name": "Concatenate", "name": "concatenate_1", "inbound_nodes": [[["up1", 0, 0, {}], ["batch_normalization_8", 0, 0, {}]]]}, {"config": {"strides": [1], "activation": "relu", "trainable": true, "data_format": "channels_last", "bias_constraint": null, "bias_regularizer": null, "name": "deconv6_conv1", "bias_initializer": {"config": {}, "class_name": "Zeros"}, "kernel_constraint": null, "activity_regularizer": null, "kernel_regularizer": null, "padding": "same", "kernel_size": [3], "kernel_initializer": {"config": {"mode": "fan_avg", "seed": null, "distribution": "uniform", "scale": 1.0}, "class_name": "VarianceScaling"}, "use_bias": true, "dilation_rate": [1], "filters": 256}, "class_name": "Conv1D", "name": "deconv6_conv1", "inbound_nodes": [[["concatenate_1", 0, 0, {}]]]}, {"config": {"gamma_constraint": null, "momentum": 0.95, "trainable": true, "beta_regularizer": null, "beta_constraint": null, "axis": -1, "gamma_initializer": {"config": {}, "class_name": "Ones"}, "name": "batch_normalization_11", "moving_mean_initializer": {"config": {}, "class_name": "Zeros"}, "beta_initializer": {"config": {}, "class_name": "Zeros"}, "center": true, "gamma_regularizer": null, "scale": true, "epsilon": 0.001, "moving_variance_initializer": {"config": {}, "class_name": "Ones"}}, "class_name": "BatchNormalization", "name": "batch_normalization_11", "inbound_nodes": [[["deconv6_conv1", 0, 0, {}]]]}, {"config": {"name": "dropout_6", "seed": null, "trainable": true, "noise_shape": null, "rate": 0.5}, "class_name": "Dropout", "name": "dropout_6", "inbound_nodes": [[["batch_normalization_11", 0, 0, {}]]]}, {"config": {"strides": [1], "activation": "relu", "trainable": true, "data_format": "channels_last", "bias_constraint": null, "bias_regularizer": null, "name": "deconv6_conv2", "bias_initializer": {"config": {}, "class_name": "Zeros"}, "kernel_constraint": null, "activity_regularizer": null, "kernel_regularizer": null, "padding": "same", "kernel_size": [3], "kernel_initializer": {"config": {"mode": "fan_avg", "seed": null, "distribution": "uniform", "scale": 1.0}, "class_name": "VarianceScaling"}, "use_bias": true, "dilation_rate": [1], "filters": 256}, "class_name": "Conv1D", "name": "deconv6_conv2", "inbound_nodes": [[["dropout_6", 0, 0, {}]]]}, {"config": {"gamma_constraint": null, "momentum": 0.95, "trainable": true, "beta_regularizer": null, "beta_constraint": null, "axis": -1, "gamma_initializer": {"config": {}, "class_name": "Ones"}, "name": "batch_normalization_12", "moving_mean_initializer": {"config": {}, "class_name": "Zeros"}, "beta_initializer": {"config": {}, "class_name": "Zeros"}, "center": true, "gamma_regularizer": null, "scale": true, "epsilon": 0.001, "moving_variance_initializer": {"config": {}, "class_name": "Ones"}}, "class_name": "BatchNormalization", "name": "batch_normalization_12", "inbound_nodes": [[["deconv6_conv2", 0, 0, {}]]]}, {"config": {"size": 2, "trainable": true, "name": "up_sampling1d_2"}, "class_name": "UpSampling1D", "name": "up_sampling1d_2", "inbound_nodes": [[["batch_normalization_12", 0, 0, {}]]]}, {"config": {"strides": [1], "activation": "relu", "trainable": true, "data_format": "channels_last", "bias_constraint": null, "bias_regularizer": null, "name": "up2", "bias_initializer": {"config": {}, "class_name": "Zeros"}, "kernel_constraint": null, "activity_regularizer": null, "kernel_regularizer": null, "padding": "same", "kernel_size": [1], "kernel_initializer": {"config": {"mode": "fan_avg", "seed": null, "distribution": "uniform", "scale": 1.0}, "class_name": "VarianceScaling"}, "use_bias": true, "dilation_rate": [1], "filters": 128}, "class_name": "Conv1D", "name": "up2", "inbound_nodes": [[["up_sampling1d_2", 0, 0, {}]]]}, {"config": {"trainable": true, "axis": -1, "name": "concatenate_2"}, "class_name": "Concatenate", "name": "concatenate_2", "inbound_nodes": [[["up2", 0, 0, {}], ["batch_normalization_6", 0, 0, {}]]]}, {"config": {"strides": [1], "activation": "relu", "trainable": true, "data_format": "channels_last", "bias_constraint": null, "bias_regularizer": null, "name": "deconv7_conv1", "bias_initializer": {"config": {}, "class_name": "Zeros"}, "kernel_constraint": null, "activity_regularizer": null, "kernel_regularizer": null, "padding": "same", "kernel_size": [3], "kernel_initializer": {"config": {"mode": "fan_avg", "seed": null, "distribution": "uniform", "scale": 1.0}, "class_name": "VarianceScaling"}, "use_bias": true, "dilation_rate": [1], "filters": 128}, "class_name": "Conv1D", "name": "deconv7_conv1", "inbound_nodes": [[["concatenate_2", 0, 0, {}]]]}, {"config": {"gamma_constraint": null, "momentum": 0.95, "trainable": true, "beta_regularizer": null, "beta_constraint": null, "axis": -1, "gamma_initializer": {"config": {}, "class_name": "Ones"}, "name": "batch_normalization_13", "moving_mean_initializer": {"config": {}, "class_name": "Zeros"}, "beta_initializer": {"config": {}, "class_name": "Zeros"}, "center": true, "gamma_regularizer": null, "scale": true, "epsilon": 0.001, "moving_variance_initializer": {"config": {}, "class_name": "Ones"}}, "class_name": "BatchNormalization", "name": "batch_normalization_13", "inbound_nodes": [[["deconv7_conv1", 0, 0, {}]]]}, {"config": {"name": "dropout_7", "seed": null, "trainable": true, "noise_shape": null, "rate": 0.5}, "class_name": "Dropout", "name": "dropout_7", "inbound_nodes": [[["batch_normalization_13", 0, 0, {}]]]}, {"config": {"strides": [1], "activation": "relu", "trainable": true, "data_format": "channels_last", "bias_constraint": null, "bias_regularizer": null, "name": "deconv7_conv2", "bias_initializer": {"config": {}, "class_name": "Zeros"}, "kernel_constraint": null, "activity_regularizer": null, "kernel_regularizer": null, "padding": "same", "kernel_size": [3], "kernel_initializer": {"config": {"mode": "fan_avg", "seed": null, "distribution": "uniform", "scale": 1.0}, "class_name": "VarianceScaling"}, "use_bias": true, "dilation_rate": [1], "filters": 128}, "class_name": "Conv1D", "name": "deconv7_conv2", "inbound_nodes": [[["dropout_7", 0, 0, {}]]]}, {"config": {"gamma_constraint": null, "momentum": 0.95, "trainable": true, "beta_regularizer": null, "beta_constraint": null, "axis": -1, "gamma_initializer": {"config": {}, "class_name": "Ones"}, "name": "batch_normalization_14", "moving_mean_initializer": {"config": {}, "class_name": "Zeros"}, "beta_initializer": {"config": {}, "class_name": "Zeros"}, "center": true, "gamma_regularizer": null, "scale": true, "epsilon": 0.001, "moving_variance_initializer": {"config": {}, "class_name": "Ones"}}, "class_name": "BatchNormalization", "name": "batch_normalization_14", "inbound_nodes": [[["deconv7_conv2", 0, 0, {}]]]}, {"config": {"size": 2, "trainable": true, "name": "up_sampling1d_3"}, "class_name": "UpSampling1D", "name": "up_sampling1d_3", "inbound_nodes": [[["batch_normalization_14", 0, 0, {}]]]}, {"config": {"strides": [1], "activation": "relu", "trainable": true, "data_format": "channels_last", "bias_constraint": null, "bias_regularizer": null, "name": "up3", "bias_initializer": {"config": {}, "class_name": "Zeros"}, "kernel_constraint": null, "activity_regularizer": null, "kernel_regularizer": null, "padding": "same", "kernel_size": [1], "kernel_initializer": {"config": {"mode": "fan_avg", "seed": null, "distribution": "uniform", "scale": 1.0}, "class_name": "VarianceScaling"}, "use_bias": true, "dilation_rate": [1], "filters": 64}, "class_name": "Conv1D", "name": "up3", "inbound_nodes": [[["up_sampling1d_3", 0, 0, {}]]]}, {"config": {"trainable": true, "axis": -1, "name": "concatenate_3"}, "class_name": "Concatenate", "name": "concatenate_3", "inbound_nodes": [[["up3", 0, 0, {}], ["batch_normalization_4", 0, 0, {}]]]}, {"config": {"strides": [1], "activation": "relu", "trainable": true, "data_format": "channels_last", "bias_constraint": null, "bias_regularizer": null, "name": "deconv8_conv1", "bias_initializer": {"config": {}, "class_name": "Zeros"}, "kernel_constraint": null, "activity_regularizer": null, "kernel_regularizer": null, "padding": "same", "kernel_size": [3], "kernel_initializer": {"config": {"mode": "fan_avg", "seed": null, "distribution": "uniform", "scale": 1.0}, "class_name": "VarianceScaling"}, "use_bias": true, "dilation_rate": [1], "filters": 64}, "class_name": "Conv1D", "name": "deconv8_conv1", "inbound_nodes": [[["concatenate_3", 0, 0, {}]]]}, {"config": {"gamma_constraint": null, "momentum": 0.95, "trainable": true, "beta_regularizer": null, "beta_constraint": null, "axis": -1, "gamma_initializer": {"config": {}, "class_name": "Ones"}, "name": "batch_normalization_15", "moving_mean_initializer": {"config": {}, "class_name": "Zeros"}, "beta_initializer": {"config": {}, "class_name": "Zeros"}, "center": true, "gamma_regularizer": null, "scale": true, "epsilon": 0.001, "moving_variance_initializer": {"config": {}, "class_name": "Ones"}}, "class_name": "BatchNormalization", "name": "batch_normalization_15", "inbound_nodes": [[["deconv8_conv1", 0, 0, {}]]]}, {"config": {"name": "dropout_8", "seed": null, "trainable": true, "noise_shape": null, "rate": 0.5}, "class_name": "Dropout", "name": "dropout_8", "inbound_nodes": [[["batch_normalization_15", 0, 0, {}]]]}, {"config": {"strides": [1], "activation": "relu", "trainable": true, "data_format": "channels_last", "bias_constraint": null, "bias_regularizer": null, "name": "deconv8_conv2", "bias_initializer": {"config": {}, "class_name": "Zeros"}, "kernel_constraint": null, "activity_regularizer": null, "kernel_regularizer": null, "padding": "same", "kernel_size": [3], "kernel_initializer": {"config": {"mode": "fan_avg", "seed": null, "distribution": "uniform", "scale": 1.0}, "class_name": "VarianceScaling"}, "use_bias": true, "dilation_rate": [1], "filters": 64}, "class_name": "Conv1D", "name": "deconv8_conv2", "inbound_nodes": [[["dropout_8", 0, 0, {}]]]}, {"config": {"gamma_constraint": null, "momentum": 0.95, "trainable": true, "beta_regularizer": null, "beta_constraint": null, "axis": -1, "gamma_initializer": {"config": {}, "class_name": "Ones"}, "name": "batch_normalization_16", "moving_mean_initializer": {"config": {}, "class_name": "Zeros"}, "beta_initializer": {"config": {}, "class_name": "Zeros"}, "center": true, "gamma_regularizer": null, "scale": true, "epsilon": 0.001, "moving_variance_initializer": {"config": {}, "class_name": "Ones"}}, "class_name": "BatchNormalization", "name": "batch_normalization_16", "inbound_nodes": [[["deconv8_conv2", 0, 0, {}]]]}, {"config": {"size": 2, "trainable": true, "name": "up_sampling1d_4"}, "class_name": "UpSampling1D", "name": "up_sampling1d_4", "inbound_nodes": [[["batch_normalization_16", 0, 0, {}]]]}, {"config": {"strides": [1], "activation": "relu", "trainable": true, "data_format": "channels_last", "bias_constraint": null, "bias_regularizer": null, "name": "up4", "bias_initializer": {"config": {}, "class_name": "Zeros"}, "kernel_constraint": null, "activity_regularizer": null, "kernel_regularizer": null, "padding": "same", "kernel_size": [1], "kernel_initializer": {"config": {"mode": "fan_avg", "seed": null, "distribution": "uniform", "scale": 1.0}, "class_name": "VarianceScaling"}, "use_bias": true, "dilation_rate": [1], "filters": 32}, "class_name": "Conv1D", "name": "up4", "inbound_nodes": [[["up_sampling1d_4", 0, 0, {}]]]}, {"config": {"trainable": true, "axis": -1, "name": "concatenate_4"}, "class_name": "Concatenate", "name": "concatenate_4", "inbound_nodes": [[["up4", 0, 0, {}], ["batch_normalization_2", 0, 0, {}]]]}, {"config": {"strides": [1], "activation": "relu", "trainable": true, "data_format": "channels_last", "bias_constraint": null, "bias_regularizer": null, "name": "deconv9_conv1", "bias_initializer": {"config": {}, "class_name": "Zeros"}, "kernel_constraint": null, "activity_regularizer": null, "kernel_regularizer": null, "padding": "same", "kernel_size": [3], "kernel_initializer": {"config": {"mode": "fan_avg", "seed": null, "distribution": "uniform", "scale": 1.0}, "class_name": "VarianceScaling"}, "use_bias": true, "dilation_rate": [1], "filters": 16}, "class_name": "Conv1D", "name": "deconv9_conv1", "inbound_nodes": [[["concatenate_4", 0, 0, {}]]]}, {"config": {"gamma_constraint": null, "momentum": 0.95, "trainable": true, "beta_regularizer": null, "beta_constraint": null, "axis": -1, "gamma_initializer": {"config": {}, "class_name": "Ones"}, "name": "batch_normalization_17", "moving_mean_initializer": {"config": {}, "class_name": "Zeros"}, "beta_initializer": {"config": {}, "class_name": "Zeros"}, "center": true, "gamma_regularizer": null, "scale": true, "epsilon": 0.001, "moving_variance_initializer": {"config": {}, "class_name": "Ones"}}, "class_name": "BatchNormalization", "name": "batch_normalization_17", "inbound_nodes": [[["deconv9_conv1", 0, 0, {}]]]}, {"config": {"name": "dropout_9", "seed": null, "trainable": true, "noise_shape": null, "rate": 0.5}, "class_name": "Dropout", "name": "dropout_9", "inbound_nodes": [[["batch_normalization_17", 0, 0, {}]]]}, {"config": {"strides": [1], "activation": "relu", "trainable": true, "data_format": "channels_last", "bias_constraint": null, "bias_regularizer": null, "name": "deconv9_conv2", "bias_initializer": {"config": {}, "class_name": "Zeros"}, "kernel_constraint": null, "activity_regularizer": null, "kernel_regularizer": null, "padding": "same", "kernel_size": [3], "kernel_initializer": {"config": {"mode": "fan_avg", "seed": null, "distribution": "uniform", "scale": 1.0}, "class_name": "VarianceScaling"}, "use_bias": true, "dilation_rate": [1], "filters": 16}, "class_name": "Conv1D", "name": "deconv9_conv2", "inbound_nodes": [[["dropout_9", 0, 0, {}]]]}, {"config": {"gamma_constraint": null, "momentum": 0.95, "trainable": true, "beta_regularizer": null, "beta_constraint": null, "axis": -1, "gamma_initializer": {"config": {}, "class_name": "Ones"}, "name": "batch_normalization_18", "moving_mean_initializer": {"config": {}, "class_name": "Zeros"}, "beta_initializer": {"config": {}, "class_name": "Zeros"}, "center": true, "gamma_regularizer": null, "scale": true, "epsilon": 0.001, "moving_variance_initializer": {"config": {}, "class_name": "Ones"}}, "class_name": "BatchNormalization", "name": "batch_normalization_18", "inbound_nodes": [[["deconv9_conv2", 0, 0, {}]]]}, {"config": {"strides": [1], "activation": "relu", "trainable": true, "data_format": "channels_last", "bias_constraint": null, "bias_regularizer": null, "name": "conv10", "bias_initializer": {"config": {}, "class_name": "Zeros"}, "kernel_constraint": null, "activity_regularizer": null, "kernel_regularizer": null, "padding": "same", "kernel_size": [1], "kernel_initializer": {"config": {"mode": "fan_avg", "seed": null, "distribution": "uniform", "scale": 1.0}, "class_name": "VarianceScaling"}, "use_bias": true, "dilation_rate": [1], "filters": 1}, "class_name": "Conv1D", "name": "conv10", "inbound_nodes": [[["batch_normalization_18", 0, 0, {}]]]}, {"config": {"strides": [1], "activation": "sigmoid", "trainable": true, "data_format": "channels_last", "bias_constraint": null, "bias_regularizer": null, "name": "predictions", "bias_initializer": {"config": {}, "class_name": "Zeros"}, "kernel_constraint": null, "activity_regularizer": null, "kernel_regularizer": null, "padding": "same", "kernel_size": [1], "kernel_initializer": {"config": {"mode": "fan_avg", "seed": null, "distribution": "uniform", "scale": 1.0}, "class_name": "VarianceScaling"}, "use_bias": true, "dilation_rate": [1], "filters": 1}, "class_name": "Conv1D", "name": "predictions", "inbound_nodes": [[["conv10", 0, 0, {}]]]}], "output_layers": [["predictions", 0, 0]], "input_layers": [["data", 0, 0]]}, "class_name": "Model", "backend": "tensorflow", "keras_version": "2.2.4"}